…
   "execution_count": 15,
   "id": "6c9e3251",
   "metadata": {},
   "outputs": [
    {
     "name": "stdout",
     "output_type": "stream",
     "text": [
      "Model: \"model\"\n",
      "_________________________________________________________________\n",
      " Layer (type)                Output Shape              Param #   \n",
      "=================================================================\n",
      " inputs (InputLayer)         [(None, 150)]             0         \n",
      "                                                                 \n",
      " embedding (Embedding)       (None, 150, 50)           50000     \n",
      "                                                                 \n",
      " lstm (LSTM)                 (None, 128)               91648     \n",
      "                                                                 \n",
      " FC1 (Dense)                 (None, 256)               33024     \n",
      "                                                                 \n",
      " activation (Activation)     (None, 256)               0         \n",
      "                                                                 \n",
      " dropout (Dropout)           (None, 256)               0         \n",
      "                                                                 \n",
      " out_layer (Dense)           (None, 1)                 257       \n",
      "                                                                 \n",
      " activation_1 (Activation)   (None, 1)                 0         \n",
      "                                                                 \n",
      "=================================================================\n",
      "Total params: 174,929\n",
      "Trainable params: 174,929\n",
      "Non-trainable params: 0\n",
      "_________________________________________________________________\n"
     ]
    }
   ],
   "source": [
    "model = RNN()\n",
…
